…
iptModule(\n      original_name=VADDecoderRNNJIT\n      (rnn): RecursiveScriptModule(original_name=LSTM)\n      (decoder): RecursiveScriptModule(\n        original_name=Sequential\n        (0): RecursiveScriptModule(original_name=ReLU)\n        (1): RecursiveScriptModule(original_name=Conv1d)\n        (2): RecursiveScriptModule(original_name=Sigmoid)\n      )\n    )\n  )\n), torch_num_threads=1)",
        "sr": 16000,
        "duration": 137.052,
        "process_time": 8.1169786999817
    },
    "transcription_metrics": {
        "model_info": "Whisper(\n  (encoder): AudioEncoder(\n    (conv1): Conv1d(80, 1024, kernel_size=(3,), stride=(1,), padding=(1,))\n    (conv2): Conv1d(1024, 1024, kernel_size=(3,), stride=(2,), padding=(1,))\n    (blocks): ModuleList(\n      (0-23): 24 x ResidualAttentionBlock(\n        (attn): MultiHeadAttention(\n          (query): Linear(in_features=1024, out_features=1024, bias=True)\n          (key): Linear(in_features=1024, out_features=1024, bias=False)\n          (value): Linear(in_features=1024, out_features=1024, bias=True)\n          (out): Linear(in_features=1024, out_features=1024, bias=True)\n        )\n        (attn_ln): LayerNorm((1024,), eps=1e-05, elementwise_affine=True)\n        (mlp): Sequential(\n          (0): Linear(in_features=1024, out_features=4096, bias=True)\n          (1): GELU(approximate='none')\n          (2): Linear(in_features=4096, out_features=1024, bias=True)\n        )\n        (mlp_ln): LayerNorm((1024,), eps=1e-05, elementwise_affine=True)\n      )\n    )\n    (ln_post): LayerNorm((1024,), eps=1e-05, elementwise_affine=True)\n  )\n  (decoder): TextDecoder(\n    (token_embedding): Embedding(51865, 1024)\n    (blocks): ModuleList(\n      (0-23): 24 x ResidualAttentionBlock(\n        (attn): MultiHeadAttention(\n          (query): Linear(in_features=1024, out_features=1024, bias=True)\n          (key): Linear(in_features=1024, out_features=1024, bias=False)\n          (value): Linear(in_features=1024, out_features=1024, bias=True)\n          (out): Linear(in_features=1024, out_features=1024, bias=True)\n        )\n        (attn_ln): LayerNorm((1024,), eps=1e-05, elementwise_affine=True)\n        (cross_attn): MultiHeadAttention(\n          (query): Linear(in_features=1024, out_features=1024, bias=True)\n          (key): Linear(in_features=1024, out_features=1024, bias=False)\n          (value): Linear(in_features=1024, out_features=1024, bias=True)\n          (out): Linear(in_features=1024, out_features=1024, bias=True)\n        )\n        (cross_attn_ln): LayerNorm((1024,), eps=1e-05, elementwise_affine=True)\n        (mlp): Sequential(\n          (0): Linear(in_features=1024, out_features=4096, bias=True)\n          (1): GELU(approximate='none')\n          (2): Linear(in_features=4096, out_features=1024, bias=True)\n        )\n        (mlp_ln): LayerNorm((1024,), eps=1e-05, elementwise_affine=True)\n      )\n    )\n    (ln): LayerNorm((1024,), eps=1e-05, elementwise_affine=True)\n  )\n)",
        "sr": 16000,
        "transcription": " Oi, Stephanie, tudo bem? Oi, bom dia a todos. Bom dia, aqui é a Malu da Nectar CRM. Oi, Malu, tudo bom? Tudo ótimo. Stephanie, eu estou te ligando porque como você deve ter visto a mensagem do Carlos, ele não faz parte mais da Nectar. Pois é, ele me contou. Mas é bom, é bom. Ele está correndo atr
…
